…
268.0s 66 Requirement already satisfied: MarkupSafe>=2.0 in /opt/conda/lib/python3.10/site-packages (from jinja2->torch>=1.8.0->ultralytics) (2.1.3)
268.1s 67 Requirement already satisfied: mpmath>=0.19 in /opt/conda/lib/python3.10/site-packages (from sympy->torch>=1.8.0->ultralytics) (1.3.0)
278.3s 68 Installing collected packages: thop, ultralytics
278.8s 69 Successfully installed thop-0.1.1.post2209072238 ultralytics-8.0.201
279.2s 70 Note: you may need to restart the kernel to use updated packages.
283.8s 71 
283.8s 72 from  n    params  module                                       arguments
283.8s 73 0                  -1  1       464  ultralytics.nn.modules.conv.Conv             [3, 16, 3, 2]
283.8s 74 1                  -1  1      4672  ultralytics.nn.modules.conv.Conv             [16, 32, 3, 2]
283.8s 75 2                  -1  1      7360  ultralytics.nn.modules.block.C2f             [32, 32, 1, True]
283.8s 76 3                  -1  1     18560  ultralytics.nn.modules.conv.Conv             [32, 64, 3, 2]
283.8s 77 4                  -1  2     49664  ultralytics.nn.modules.block.C2f             [64, 64, 2, True]
283.8s 78 5                  -1  1     73984  ultralytics.nn.modules.conv.Conv             [64, 128, 3, 2]
283.8s 79 6                  -1  2    197632  ultralytics.nn.modules.block.C2f             [128, 128, 2, True]
283.8s 80 7                  -1  1    295424  ultralytics.nn.modules.conv.Conv             [128, 256, 3, 2]
283.8s 81 8                  -1  1    460288  ultralytics.nn.modules.block.C2f             [256, 256, 1, True]
283.8s 82 9                  -1  1    164608  ultralytics.nn.modules.block.SPPF            [256, 256, 5]
283.8s 83 10                  -1  1         0  torch.nn.modules.upsampling.Upsample         [None, 2, 'nearest']
283.8s 84 11             [-1, 6]  1         0  ultralytics.nn.modules.conv.Concat           [1]
283.8s 85 12                  -1  1    148224  ultralytics.nn.modules.block.C2f             [384, 128, 1]
283.8s 86 13                  -1  1         0  torch.nn.modules.upsampling.Upsample         [None, 2, 'nearest']
283.8s 87 14             [-1, 4]  1         0  ultralytics.nn.modules.conv.Concat           [1]
283.8s 88 15                  -1  1     37248  ultralytics.nn.modules.block.C2f             [192, 64, 1]
283.8s 89 16                  -1  1     36992  ultralytics.nn.modules.conv.Conv             [64, 64, 3, 2]
283.8s 90 17            [-1, 12]  1         0  ultralytics.nn.modules.conv.Concat           [1]
283.8s 91 18                  -1  1    123648  ultralytics.nn.modules.block.C2f             [192, 128, 1]
283.8s 92 19                  -1  1    147712  ultralytics.nn.modules.conv.Conv             [128, 128, 3, 2]
283.8s 93 20             [-1, 9]  1         0  ultralytics.nn.modules.conv.Concat           [1]
283.9s 94 21                  -1  1    493056  ultralytics.nn.modules.block.C2f             [384, 256, 1]
283.9s 95 22        [15, 18, 21]  1    897664  ultralytics.nn.modules.head.Detect           [80, [64, 128, 256]]
284.4s 96 YOLOv8n summary: 225 layers, 3157200 parameters, 3157184 gradients, 8.9 GFLOPs
284.4s 97 
284.4s 98 Downloading https://github.com/ultralytics/assets/releases/download/v0.0.0/yolov8n.pt to 'yolov8n.pt'...
284.9s 99 0%|          | 0.00/6.23M [00:00<?, ?B/s]100%|â–ˆâ–ˆâ–ˆâ–ˆâ–ˆâ–ˆâ–ˆâ–ˆâ–ˆâ–ˆ| 6.23M/6.23M [00:00<00:00, 69.7MB/s]
284.9s 100 Transferred 355/355 items from pretrained weights
…
, scale=0.5, shear=0.0, perspective=0.0, flipud=0.0, fliplr=0.5, mosaic=1.0, mixup=0.0, copy_paste=0.0, cfg=None, tracker=botsort.yaml, save_dir=runs/detect/train
285.9s 103 Downloading https://ultralytics.com/assets/Arial.ttf to '/root/.config/Ultralytics/Arial.ttf'...
286.6s 104 0%|          | 0.00/755k [00:00<?, ?B/s]100%|â–ˆâ–ˆâ–ˆâ–ˆâ–ˆâ–ˆâ–ˆâ–ˆâ–ˆâ–ˆ| 755k/755k [00:00<00:00, 12.8MB/s]
297.2s 105 Overriding model.yaml nc=80 with nc=11
297.2s 106 
297.2s 107 from  n    params  module                                       arguments
297.2s 108 0                  -1  1       464  ultralytics.nn.modules.conv.Conv             [3, 16, 3, 2]
297.2s 109 1                  -1  1      4672  ultralytics.nn.modules.conv.Conv             [16, 32, 3, 2]
297.3s 110 2                  -1  1      7360  ultralytics.nn.modules.block.C2f             [32, 32, 1, True]
297.3s 111 3                  -1  1     18560  ultralytics.nn.modules.conv.Conv             [32, 64, 3, 2]
297.3s 112 4                  -1  2     49664  ultralytics.nn.modules.block.C2f             [64, 64, 2, True]
297.3s 113 5                  -1  1     73984  ultralytics.nn.modules.conv.Conv             [64, 128, 3, 2]
297.3s 114 6                  -1  2    197632  ultralytics.nn.modules.block.C2f             [128, 128, 2, True]
297.3s 115 7                  -1  1    295424  ultralytics.nn.modules.conv.Conv             [128, 256, 3, 2]
297.3s 116 8                  -1  1    460288  ultralytics.nn.modules.block.C2f             [256, 256, 1, True]
297.3s 117 9                  -1  1    164608  ultralytics.nn.modules.block.SPPF            [256, 256, 5]
297.3s 118 10                  -1  1         0  torch.nn.modules.upsampling.Upsample         [None, 2, 'nearest']
297.3s 119 11             [-1, 6]  1         0  ultralytics.nn.modules.conv.Concat           [1]
297.3s 120 12                  -1  1    148224  ultralytics.nn.modules.block.C2f             [384, 128, 1]
297.3s 121 13                  -1  1         0  torch.nn.modules.upsampling.Upsample         [None, 2, 'nearest']
297.3s 122 14             [-1, 4]  1         0  ultralytics.nn.modules.conv.Concat           [1]
297.3s 123 15                  -1  1     37248  ultralytics.nn.modules.block.C2f             [192, 64, 1]
297.3s 124 16                  -1  1     36992  ultralytics.nn.modules.conv.Conv             [64, 64, 3, 2]
297.3s 125 17            [-1, 12]  1         0  ultralytics.nn.modules.conv.Concat           [1]
297.3s 126 18                  -1  1    123648  ultralytics.nn.modules.block.C2f             [192, 128, 1]
297.3s 127 19                  -1  1    147712  ultralytics.nn.modules.conv.Conv             [128, 128, 3, 2]
297.3s 128 20             [-1, 9]  1         0  ultralytics.nn.modules.conv.Concat           [1]
297.3s 129 21                  -1  1    493056  ultralytics.nn.modules.block.C2f             [384, 256, 1]
297.3s 130 22        [15, 18, 21]  1    753457  ultralytics.nn.modules.head.Detect           [11, [64, 128, 256]]
297.5s 131 YOLOv8n summary: 225 layers, 3012993 parameters, 3012977 gradients, 8.2 GFLOPs
297.5s 132 
297.5s 133 Transferred 319/355 items from pretrained weights
297.5s 134 [34m[1mTensorBoard: [0mStart with 'tensorboard --logdir runs/detect/train', view at http://localhost:6006/
299.2s 135 [34m[1mwandb[0m: Currently logged in as: [33mjimmy2672001[0m ([33mrandika-team[0m). Use [1m`wandb login --relogin`[0m to force relogin
…
